checkpoint.pth (torch_old, 28405 bytes, 6 tensors)

fc1.weight f4 [64, 37]
000000 7e e2 1f 3e fa e6 bb bd b2 e0 e4 be 5f dd 13 be
       0.15613744 -0.09174915 -0.4470268 -0.14439915
000010 ca ac 02 bf 65 d8 a4 be df 92 38 3e 56 45 80 bd
       -0.51044905 -0.32196346 0.18024777 -0.06263225
000020 53 f5 4c bc 23 8c 53 3e b4 9c 7a bd 95 82 ef bd
       -0.012509662 0.20658927 -0.0611846 -0.116948284
000030 46 c0 30 be b3 7c 7e bc db 47 41 be f2 b8 0e 3c
       -0.17260846 -0.01553266 -0.18875067 0.008711087
000040 8b ca aa bd b8 f2 2a 3d e1 22 3b 3e ce d8 85 be
       -0.08339413 0.04173538 0.18275024 -0.2614197
000050 c5 7c 0b 3e e8 30 5a 3e ab fc 05 bd 48 a7 e6 bd
       0.13621815 0.21307719 -0.032711666 -0.11262375
000060 af 8a 47 bd 38 2a 78 bc 19 a9 3f be 1c f3 98 3e
       -0.048716243 -0.0151467845 -0.1871685 0.29872978
000070 d0 c9 c5 be 4a 23 5b be fc 03 5e 3d df 46 cf bd
       -0.38630533 -0.2140018 0.05420302 -0.101209395
000080 6f 3a 4d 3e f0 a5 a0 bd 3b c6 95 be a8 a2 31 3e
       0.20041822 -0.0784415 -0.292528 0.17347205
000090 df 03 95 bc 11 d3 90 3e 13 88 82 3d 3d 40 22 be
       -0.018190322 0.2828603 0.0637361 -0.15844817
0000a0 17 ad 07 be d2 61 12 bf d5 20 06 be 6b 1b 0a be
       -0.13249622 -0.5718051 -0.13098462 -0.13487022
0000b0 a2 3c 00 3e 8d 0c 4f be 6f 94 79 be c9 59 b4 bd
       0.1252313 -0.20219631 -0.24373029 -0.08806188
0000c0 dc fe 1d 3e 22 e6 67 bd 53 9d 47 3d 55 15 f0 3d
       0.15429252 -0.056615956 0.04873402 0.11722819
0000d0 61 68 af 3d e4 c9 bb bc 46 c2 42 3c d1 e6 e3 3d
       0.085648306 -0.022923417 0.011887139 0.11128009
0000e0 dc fc 9d bd d2 86 44 be 5e e3 f9 bc 65 aa d4 bd
       -0.07714245 -0.19192055 -0.030503925 -0.10384063
0000f0 53 45 00 bd e2 f5 9d bb a6 76 13 be 85 62 60 3d
       -0.031316113 -0.0048205713 -0.1440073 0.054781456
000100 c0 6c 09 3e a6 87 25 be d2 b8 f2 bd 02 6b 4f 3e
       0.13420391 -0.16165027 -0.11851658 0.20255664
000110 77 0c 36 3e 8a 00 10 be e5 71 60 3c 4a 57 bd ba
       0.17778192 -0.14062706 0.01369903 -0.001444557
000120 7f 37 1f 3e f7 05 50 bc 19 83 bf 3c 68 82 5e bd
       0.15548514 -0.012696735 0.023377942 -0.054323584
000130 00 93 00 3e 7e 53 99 be 38 df 4c 3b 5c a7 6e bf
       0.12556076 -0.29946512 0.0031260978 -0.9322412
000140 b4 2b 50 3e 20 f6 98 bc 24 ff 04 3e 61 77 63 3d
       0.20329171 -0.018672049 0.12987953 0.05553377
000150 4a a2 6d 3d 02 52 88 3c 1d 63 ed be ce 3c ad be
       0.0580161 0.016640667 -0.4636468 -0.33835453
000160 54 c3 ce 3d d0 da 41 be 17 70 5d 3e 46 03 f1 be
       0.1009585 -0.18931127 0.2162479 -0.4707281
000170 8b 5a d3 3c f4 96 14 3f b0 57 d0 be f0 64 e9 bc
       0.02580001 0.58042836 -0.406919 -0.028490514
000180 4f 95 17 be 67 ef da be 41 7a 45 3e 17 41 c9 bd
       -0.1480305 -0.42760774 0.19284917 -0.09826868
000190 89 4b c7 be 1a 45 bc 3e a2 eb e6 be 56 94 00 bf
       -0.38924816 0.3677147 -0.4510165 -0.5022634
0001a0 e2 1b ff be f5 f3 17 be 34 76 66 3d 94 86 9e be
       -0.4982596 -0.14839156 0.05626507 -0.3096205
0001b0 f7 38 20 bc 60 da 2f 3c 8e d4 4e bc c2 01 d8 bc
       -0.0097792065 0.010733217 -0.012623919 -0.026368026
0001c0 53 49 b5 be a8 12 09 bd 1f 60 76 3e 99 b0 b3 bf
       -0.35407504 -0.033465058 0.24060105 -1.4038268
0001d0 93 ab a1 be b7 78 ec be 44 43 75 3e c6 ce 86 be
       -0.31576213 -0.46185848 0.23951441 -0.2632963
0001e0 b3 df 85 be d5 a2 40 3e e1 44 0f 3d 64 98 07 bf
       -0.2614723 0.18812115 0.034977797 -0.52966905
0001f0 6b 46 f7 be ce d3 82 3e 2b b6 9b be 7f fe 76 be
       -0.48295912 0.2555222 -0.3041242 -0.2412052
000200 8a e0 68 be 9f 44 40 be 76 f3 6b bf 0a bb 84 be
       -0.22741905 -0.18776177 -0.92168367 -0.2592395
000210 92 10 b5 be f0 e1 24 be c4 81 1a 3e 1d f5 38 bf
       -0.35364205 -0.16101813 0.15088564 -0.72249013
000220 d8 13 86 be 31 7c 08 bf fe 0c bc bd 92 26 86 3e
       -0.26187015 -0.533145 -0.091821656 0.26201302
000230 8d 08 a3 be 5f bb 0e bf 59 40 a0 3e 06 cc 9f 3e
       -0.3184246 -0.55754656 0.31299093 0.31210345
000240 d0 6c 49 bf 2d 33 1b bf cf 5e c5 bd b3 c0 af 3d
       -0.7868166 -0.60624963 -0.09637224 0.08581676
000250 ed 65 c7 bc 0f c7 83 be 33 dd 68 bf f7 92 08 bf
       -0.024340594 -0.25737807 -0.90962523 -0.5334925
000260 fd df 15 bf 90 5b 06 bf b1 ab 14 3f 22 07 80 be
       -0.58544904 -0.52483463 0.5807448 -0.25005442
000270 ec 86 89 be 41 99 ec be 0b d4 47 be a5 d4 10 be
       -0.2686075 -0.46210673 -0.19514482 -0.14143617
000280 47 0d 36 3d 77 18 af be e9 ca b1 be fe c2 b4 bc
       0.044446256 -0.34198353 -0.3472512 -0.022065636
000290 3d c4 01 3c 6b 26 26 bf 7e 18 30 be 11 18 59 be
       0.007920322 -0.6490237 -0.17196843 -0.21200587
0002a0 b2 39 90 bc b9 74 dc be a7 89 97 bd d9 df 30 bd
       -0.017605636 -0.43057802 -0.07399302 -0.043182228
0002b0 6a 41 9f be 9c 34 ad bd 82 a6 19 3e e6 b9 e4 be
       -0.31104594 -0.084573 0.15004924 -0.4467308
0002c0 f4 12 a0 be 0c 6d 9e be 25 c3 54 be cb 8a ad 3b
       -0.3126446 -0.3094257 -0.20777567 0.0052960864
0002d0 92 eb c2 3d 4d 46 d1 be aa 93 81 be 17 16 5e 3e
       0.09517588 -0.40873948 -0.2530797 0.21688114
0002e0 65 72 89 3d 78 6e bf 3d 08 47 52 bd c9 5d a9 be
       0.06711272 0.09347242 -0.051337272 -0.33079365
0002f0 0d 84 13 3e 8a 6a 96 3d 1e 9a 3c 3e 2f 6c 79 3e
       0.14405842 0.073445395 0.18418166 0.24357675
000300 fc e0 47 be e6 d2 62 bd 72 51 0a be 0b 63 a3 be
       -0.19519418 -0.05537691 -0.13507631 -0.319115
000310 92 e7 de 3c f0 6c 74 3d f2 62 6f 3d f3 02 67 bd
       0.02721003 0.059674203 0.05844397 -0.056399297
000320 51 c9 31 be c0 bc 89 bd b4 cc 20 3e 90 e5 d6 3c
       -0.17361952 -0.06725454 0.15703088 0.02623251
000330 a6 29 6f bc 21 0f 81 bd 66 69 e8 3d be 79 6a 3d
       -0.014597332 -0.06301714 0.11348228 0.05724501
000340 de f2 2f 3e d7 05 e4 3d c7 25 bb 3c d5 a7 96 bd
       0.1718249 0.11133926 0.022845162 -0.0735623
000350 44 4b ce 3c c5 86 22 3d 82 1a 66 bc 19 d1 89 3d
       0.025182374 0.039679307 -0.014044406 0.06729335
000360 15 06 1e bf f6 23 8a 3e 79 b3 be be 4a 96 03 c0
       -0.6172803 0.2698056 -0.37246302 -2.056048
000370 c0 bb e6 bd a9 27 a5 3c 6a a3 28 bf 8e ac 01 be
       -0.11266279 0.020160513 -0.6587435 -0.1266348
000380 91 53 0a 3b 8c 9e 23 3d 48 48 00 be 1e b2 15 bf
       0.0021106938 0.039946124 -0.12527573 -0.5847491
000390 e0 fa 19 3e 1e ba 94 be 24 ae 55 bd aa 1b e1 3d
       0.15037107 -0.29048246 -0.052168027 0.109916046
0003a0 2c 76 ed 3d d8 ac 09 ba 14 fa 9c be 87 17 51 be
       0.11594805 -0.0005251891 -0.30659544 -0.20419131
0003b0 9e 26 6b bb 20 94 93 be 5a ba 1a be e2 da 08 bf
       -0.0035881172 -0.28823948 -0.1511015 -0.5345899
0003c0 f3 54 cf 3e 05 9c 5c be 6b 3e 2b 3c 80 21 cd bd
       0.404945 -0.21543892 0.010451893 -0.10016155
0003d0 38 1f 90 be ea 1b 48 3d 69 0f 93 3d 0f 13 11 bf
       -0.28148818 0.048854746 0.07180674 -0.56669706
0003e0 8a 32 42 be af 81 c3 3d 9a 97 e1 bd af 61 b4 bd
       -0.18964592 0.095462196 -0.11015244 -0.08807694
0003f0 d7 94 9f be ac b2 87 3e 56 fa 0f bf 89 7e 01 be
       -0.31168243 0.26503503 -0.5624136 -0.12645926

fc1.bias f4 [64]
000000 91 d1 1d bd 13 7c ee bd b6 79 7b be 2a 12 97 bd
       -0.038529936 -0.11644759 -0.24558148 -0.073765114
000010 26 63 9a 3d df 62 b1 bd 7d 61 46 be 39 3b 88 3c
       0.07538442 -0.08661436 -0.19373126 0.016629802
000020 b9 fd 2c bc 82 78 71 be e3 ce c0 3d b9 94 57 3e
       -0.010558539 -0.23581126 0.094144605 0.21052827
000030 59 cd 0b 3e 0d a8 c3 3e b8 ec bd bd f8 2e 52 bd
       0.13652553 0.3821415 -0.09273666 -0.051314324
000040 39 3a dd bd e0 df 70 3c 69 16 a7 3c 2d 8f 24 be
       -0.10802121 0.014701813 0.020396428 -0.16070242
000050 2c 62 8b bd 67 32 5e bd 0b 68 42 3d 86 9d 11 be
       -0.06805834 -0.054247286 0.047462504 -0.14220247
000060 31 6e 05 be cb 6a f9 bc 93 7e 02 be a4 6b 6c be
       -0.13030316 -0.03044643 -0.12743597 -0.23087937
000070 ca d4 91 bb fc c8 fa 3d b8 1f 61 ba 74 26 42 be
       -0.0044504153 0.12245366 -0.00085877953 -0.18959981
000080 c3 84 ee 3d de 74 04 3d 93 a2 57 be 6d 10 8f bd
       0.11646416 0.032338016 -0.21058111 -0.06985555
000090 c7 58 bc bd b4 b6 a0 3d ea 26 7c bd d4 15 48 be
       -0.091966204 0.07847348 -0.06156055 -0.19539577
0000a0 33 2b 99 bd dc 62 16 bd 9c a4 62 bd ef 2e 05 3e
       -0.07478943 -0.036715373 -0.055332765 0.13006185
0000b0 e9 be 85 3a 4f 9e 57 be 55 46 2a 3d 94 79 9a be
       0.001020399 -0.21056484 0.04157098 -0.30170882
0000c0 b2 80 67 be 3f 57 f9 3d 72 52 74 be 60 92 cb 3c
       -0.22607687 0.12174844 -0.23859575 0.02485007
0000d0 ea f5 9f bd bd 68 11 be 59 8b 81 be 02 a4 a3 bd
       -0.07810576 -0.1420011 -0.25301626 -0.079902664
0000e0 12 52 73 3d a5 60 bb bd 13 20 59 be a2 68 2a be
       0.05940444 -0.09149293 -0.21203642 -0.16641477
0000f0 00 cd 8b bd 99 2f c0 bc 5e 7e 87 3e 06 10 a1 bd
       -0.0682621 -0.023460196 0.26463598 -0.07864384

fc2.weight f4 [64, 64]
000000 58 14 4c 3d 3f e4 ba bc ff e1 4b 3e a3 01 73 3e
       0.04982409 -0.022813914 0.1991043 0.23731093
000010 6b c5 a5 3c f5 ec 4c 3c 85 5d 07 3d 22 ae d2 3d
       0.020235738 0.012507667 0.03304817 0.102871194
000020 6c 9e 9b bc 4e a0 ca 3e ae ce d6 be 15 6e a9 be
       -0.01899644 0.39575428 -0.4195456 -0.33091798
000030 04 c7 1b be 5c 21 15 be 4f 0b ce bd 38 b8 45 bf
       -0.15212637 -0.14563507 -0.10060751 -0.7723422
000040 20 8d 7e 3d c1 17 f2 be 65 6e 1a 3f 72 a2 3f be
       0.062146306 -0.47283748 0.603247 -0.18714312
000050 49 bc a5 3e 8d 77 7b 3e 7c 19 f3 bd 45 00 01 3e
       0.32370213 0.24557324 -0.11870095 0.12597759
000060 c1 91 c1 be ee 54 b8 be 4a 0d 04 3e 7c 75 5b 3e
       -0.37806514 -0.36002296 0.12895694 0.21431535
000070 90 6d fd bd 0c 49 b5 be b6 7d 83 be 25 89 19 3d
       -0.12374413 -0.35407293 -0.25681847 0.037484307
000080 3d 51 c2 be b3 4c e6 3d fc ad 35 be 20 16 b3 bc
       -0.37952605 0.11245098 -0.17742151 -0.021861136
000090 e1 51 fd 3d bc d8 05 be 24 02 01 bf 52 c6 18 3d
       0.12369133 -0.13070959 -0.5039389 0.037298508
0000a0 87 fa b9 be f9 0a 01 be 00 37 fa 3e 4e 54 e3 bd
       -0.3632395 -0.12601842 0.48870087 -0.11100064
0000b0 55 fe fb bc 1f 7d 3f bc 8d 7c 6a 3e c3 10 82 bb
       -0.030760923 -0.011687546 0.22899075 -0.0039692833
0000c0 24 ab 8e bb 92 db 15 3f 68 10 ff 3b 51 46 c7 3d
       -0.0043538976 0.5853816 0.007783938 0.09730209
0000d0 9b c6 e3 3c ce 44 55 be db de b0 3d f7 00 d6 3d
       0.027804663 -0.20827028 0.08636256 0.10449403
0000e0 cb f4 f9 bb b0 85 b4 be 34 a1 09 be 16 c7 bf 3d
       -0.0076280585 -0.35258245 -0.134404 0.093641445
0000f0 f8 2c 33 3d 17 35 85 bc 09 0f 4d 3d a5 b0 e2 3c
       0.043744057 -0.016260667 0.050063167 0.027672121
000100 4e ff 0b 3e ff 3b 9a bd 33 47 13 bd fd da 85 3d
       0.1367161 -0.075309746 -0.035956573 0.06535909
000110 81 24 51 3e 94 eb 5f bd b3 85 04 3f 48 95 50 3d
       0.20424081 -0.054668024 0.5176651 0.050923616
000120 76 3e b5 be 81 35 24 bd f7 2f a4 be be b1 d5 3e
       -0.35399216 -0.040090088 -0.32067844 0.4173717
000130 2b 43 66 be c8 a5 1b bc 8d 17 3a be 7c bd 8f bd
       -0.2248656 -0.009499975 -0.18173046 -0.07018563
000140 23 ef 0f bc 27 d1 60 be 72 c1 cc 3d 41 11 a3 3e
       -0.008785042 -0.21954785 0.09997834 0.318491
000150 35 4e 18 3e 3d 83 84 be 4e 3c 9d 3e d0 05 25 3d
       0.14873584 -0.25881377 0.3071007 0.040288746
000160 e6 20 84 3e a0 6b 5b bd 42 3c 23 3e 77 e7 86 bd
       0.2580635 -0.053569436 0.15940955 -0.06587117
000170 c9 0f cf 3d 09 c9 9e be a2 b0 b5 bd b4 b4 a0 3e
       0.10110433 -0.31012753 -0.08871581 0.31387866
000180 44 95 ef bd a5 af c0 3b ba e3 26 be fd c6 8b bc
       -0.11698392 0.0058803135 -0.16297808 -0.017062658
000190 34 7c f4 bc f5 f0 93 3e 89 86 57 bc 0d f4 92 be
       -0.02984438 0.28894773 -0.013154634 -0.2870182
0001a0 fe db e3 be 50 06 37 3e a1 94 cf bc 8d 57 c6 bd
       -0.44503778 0.17873502 -0.025339426 -0.09684668
0001b0 96 bd 84 be 71 55 74 bc 01 7b 8c be e2 3e 1f be
       -0.25925893 -0.014912949 -0.27437595 -0.15551332
0001c0 f9 0c 8a 3d 30 b7 77 be 18 a1 55 bd 33 9c b5 3d
       0.067407556 -0.24190974 -0.052155584 0.08867683
0001d0 98 11 65 bd dc a5 16 3e cd 92 15 bd 6e 34 00 be
       -0.05592498 0.14711708 -0.036516953 -0.1252
0001e0 44 40 be bd 0d 59 02 be ad 16 0a 3e bb b3 29 3e
       -0.092896014 -0.12729283 0.13485213 0.16572468
0001f0 c8 46 1d 3d 29 ef a2 bd 51 e2 71 be 62 00 9d bd
       0.03839758 -0.079557724 -0.23621489 -0.07666089
000200 9d 96 39 3e 08 be 7c bd ea f6 9e bd e9 34 b5 bc
       0.1812386 -0.061704665 -0.07761939 -0.022119956
000210 28 6a 92 3e a5 11 89 3c 8f 7c 9b 3e 8d 77 8d 3d
       0.28596616 0.016732046 0.30368468 0.06907568
000220 43 29 8c bd e2 52 88 bd b9 4b 86 3e ff 35 99 be
       -0.068438075 -0.06656434 0.26229647 -0.29924008
000230 96 42 95 3e 5c c2 61 bd 53 7d 95 3c 4d 32 04 bf
       0.29152364 -0.055116996 0.018248236 -0.5163925
000240 61 33 ce 3c c4 15 b1 3e 31 b8 17 3e 4d 16 d6 3e
       0.025170984 0.34586918 0.14816357 0.4181389
000250 19 a3 3e be 42 a1 03 bd 57 7a 7d be 12 fd 13 be
       -0.18616904 -0.03213621 -0.247537 -0.14452007
000260 a0 e3 00 bf 3b ca b2 3e b6 74 86 3d 27 c6 02 bd
       -0.5034733 0.34919915 0.065652296 -0.031927254
000270 7f 17 05 3e 99 29 5f 3e 76 f4 36 bd 59 c3 02 bc
       0.12997244 0.21793212 -0.04466673 -0.007981145
000280 bc 64 ab 3e 7b 1e 16 3f cb d8 4d 3e 85 54 05 3e
       0.33475292 0.5864026 0.20102231 0.13020523
000290 8d 78 b4 bd 88 27 67 3d f6 f7 d2 3e e8 7e 2b 3e
       -0.08812056 0.056434184 0.41204804 0.1674763
0002a0 28 3e d2 3e 7f ae df 3c a1 3c 83 be 70 73 24 bd
       0.41063046 0.027304886 -0.25632194 -0.040149152
0002b0 bb 61 2d be 11 29 56 3e 5f 45 b6 3e 21 7c cd be
       -0.16931812 0.20914103 0.355998 -0.40133765
0002c0 5d 63 41 be 35 57 3b be 6a 35 8e 3e 2f 84 36 3e
       -0.1888556 -0.18294986 0.27775127 0.17823862
0002d0 3e f5 3e bf 85 e9 96 be 3e ae 01 3e 7e 9b 86 bb
       -0.7459296 -0.29475036 0.12664124 -0.0041078916
0002e0 23 4c 3c 3f bb cb a8 bd 11 40 23 3e aa ab 5b 3e
       0.73553675 -0.082419835 0.15942408 0.21452203
0002f0 c8 f9 39 bd 6f 3e 89 bd f2 ce 96 bb 3c a9 96 3d
       -0.045404226 -0.067013614 -0.0046023065 0.07356498
000300 b1 39 1e 3e 10 1a 10 be e5 ae 7b 3c 8d a3 0f be
       0.15451695 -0.14072442 0.015361522 -0.14027233
000310 e4 ac 9c be 8a 6c 15 3e ed 7f 9a be e5 4c ab be
       -0.30600655 0.14592186 -0.30175725 -0.33457103
000320 dd 6b 9f 3d 2e fd 03 3e 2e a9 10 bf 46 2c 1e bf
       0.07784245 0.12889549 -0.5650815 -0.61786306
000330 a1 d2 8b be 4f d5 a4 3d 8d df c2 bd 48 1a fc 3d
       -0.27309135 0.08048498 -0.09515295 0.123097
000340 44 39 5a bc 89 10 5d 3e 3d da 1e be c3 a2 6e be
       -0.013319317 0.21588339 -0.15512939 -0.23304276
000350 dc 8c 2a be ba f0 a4 bd 58 4c 4f 3e f5 91 02 3e
       -0.16655296 -0.080537274 0.20243967 0.1275099
000360 e4 7d 1f 3e 24 7f 0c 3f d8 96 3b 3d 8a 6b 36 bd
       0.15575367 0.548815 0.045798153 -0.04453615
000370 45 57 2a 3e 89 5e c1 3e 36 da 9f 3d dd 20 e6 3d
       0.16634853 0.37767437 0.07805292 0.11236737
000380 37 79 95 bc ec 00 ad be b6 41 08 3d 20 74 9b 3d
       -0.018246276 -0.33789766 0.03326579 0.075905085
000390 66 86 1d be 3f 41 58 be 6f d5 f7 3e 06 49 62 be
       -0.153833 -0.2111864 0.48405024 -0.22098169
0003a0 91 27 f3 be 15 49 8b bd 93 a5 85 3e e2 cb a8 bd
       -0.47491124 -0.06801049 0.26102886 -0.082420126
0003b0 f8 25 7e 3c 79 6a 73 3c 3a c5 8f bc 28 d9 d7 3e
       0.015511982 0.014856928 -0.0175501 0.42157865
0003c0 11 4d 49 bd 55 9c 1c be e5 d6 6e bd 85 d6 37 bd
       -0.049145762 -0.15294011 -0.05831041 -0.044882316
0003d0 40 2f ba 3d 42 fc 6c be 5e d2 51 be 9b f6 d5 3d
       0.090910435 -0.23143104 -0.20490405 0.10447427
0003e0 cc 36 97 bd 6d 75 82 bd fa a6 b3 bd 90 7f 42 3e
       -0.073834985 -0.063700534 -0.087720826 0.18993974
0003f0 97 91 01 3d 37 c9 5d bd ac 75 5d be ea 6d 2c bd
       0.031632986 -0.05414697 -0.2162692 -0.04209701

fc2.bias f4 [64]
000000 22 07 aa ba 80 0a 00 3e 40 03 88 3d 37 15 a0 3e
       -0.0012972096 0.12504005 0.06641245 0.31266186
000010 4b 91 f6 3e 07 9d 95 be 62 5c b4 3d 78 3f 11 bd
       0.48157725 -0.29221365 0.08806683 -0.03546092
000020 b2 6d 47 3e 33 0b 59 3f e5 85 e0 be 51 42 0e 3e
       0.19475439 0.84782714 -0.43852153 0.13892485
000030 95 e3 4e be 04 49 24 be 1d ba ea bd a4 98 6c 3d
       -0.20204003 -0.16043478 -0.114612795 0.057762757
000040 80 29 15 3e 36 04 41 be 8f 68 04 be bc ba b9 3e
       0.14566612 -0.18849263 -0.12930511 0.3627528
000050 47 ca 26 3f 5b fa 74 3f a3 99 9c be 85 a9 80 be
       0.651524 0.9569451 -0.30585966 -0.25129333
000060 94 7b c1 bd e2 56 0e be 5e 1a 1f 3d 8b 95 bb 3c
       -0.09447399 -0.1390033 0.038843505 0.022898456
000070 03 c3 fd bd df 98 3e 3e 72 7a cf bd 7f 4d b9 3d
       -0.12390711 0.18613003 -0.101307765 0.09047984
000080 7d 72 1a be 65 98 85 3e 74 a5 16 3d 00 6a c6 bd
       -0.15082736 0.2609283 0.036778882 -0.09688187
000090 e5 3c ad bd 0f 01 3b be 84 a0 3c be 38 b6 24 3e
       -0.0845888 -0.18262123 -0.18420607 0.16085136
0000a0 79 dd a0 bc 65 e5 67 3f 84 22 13 3f 81 bb f5 bd
       -0.019636856 0.90584403 0.5747454 -0.11998654
0000b0 ab 10 32 3e 69 b1 7f be ea 4c 32 3f ac 03 80 be
       0.17389171 -0.2497002 0.6964861 -0.250028
0000c0 93 2e c3 bc 76 5b 1c be 7f f5 ff bd 79 f7 4c 3f
       -0.02382592 -0.15269265 -0.124979965 0.80065113
0000d0 b0 ba c6 3e ba 05 83 bd 36 c0 f5 3e 35 41 8c 3d
       0.38814306 -0.06397577 0.47998208 0.06848375
0000e0 b1 4e 63 be 04 2c 42 be 19 7d f5 bd be 58 a1 3d
       -0.22197987 -0.18962103 -0.11986751 0.07878254
0000f0 ac 78 df bd 6d 19 1e 3f 5f de 70 bb f5 59 ca bd
       -0.10911688 0.61757547 -0.0036753637 -0.09880439

fc3.weight f4 [4, 64]
000000 ac 18 22 3f ca f1 5b 3e 1f ec 66 3e e3 7e 22 3e
       0.63318896 0.21478954 0.2255101 0.15868716
000010 31 a3 82 3e 23 b7 53 bd 1a 38 17 3e 57 0b f7 be
       0.2551513 -0.051688325 0.14767495 -0.4825084
000020 1b da 4c 3e 7e 77 86 3e 41 2f 59 be f4 8a 3a bc
       0.20005076 0.2626304 -0.21209432 -0.011385668
000030 8b da ed bd 44 19 0f 3c f1 3d 01 be d0 14 e6 bd
       -0.116139494 0.008734051 -0.12621285 -0.112344384
000040 19 aa 51 3e 42 d1 5b 3d 8c 7a 29 3e 18 ae 33 3e
       0.20475043 0.05366636 0.16550654 0.1754688
000050 a9 51 32 3e 9e 2f 93 3e 54 af 73 be 06 43 18 bf
       0.17413963 0.28747267 -0.23797351 -0.5947727
000060 6a e6 b1 3e 45 6f 40 bd f1 63 d6 be 0f 2f 36 3b
       0.34746104 -0.046981115 -0.41873124 0.0027799045
000070 ae 33 05 3f 82 9c 81 3e 42 e5 f8 be be cd fd 3d
       0.5203198 0.25314718 -0.4861241 0.12392758
000080 bc be bf be 86 fc c7 3e 49 e4 89 bd a5 1b 99 3b
       -0.37450206 0.39059848 -0.06732995 0.004672485
000090 f1 61 d1 3c 33 db 5b be ea 2f 38 be d0 09 5b 3e
       0.025559397 -0.21470337 -0.17987028 0.21390462
0000a0 c9 eb 38 3e 29 e4 8a 3e f2 10 04 3e 4a 55 28 be
       0.18058695 0.27127197 0.12897089 -0.16438785
0000b0 1c b7 29 3f 61 37 0e be 67 8e 8d 3e 58 50 fc 3e
       0.6629503 -0.13888313 0.27647707 0.49280047
0000c0 9f d9 b2 be 52 bc 86 3e 78 c2 ac 3e 80 2b 6c 3e
       -0.34931657 0.26315552 0.33742118 0.23063469
0000d0 3d 4d 8f 3e 64 44 24 bd 33 62 3a 3e 51 24 4b bc
       0.27988616 -0.040104285 0.18201523 -0.012398795
0000e0 df 38 28 bf 40 29 a4 bd b2 ba 6f be 04 b0 92 3c
       -0.6571178 -0.0801568 -0.23411062 0.017906196
0000f0 cf 57 88 be 5f 88 72 3e 94 65 82 3e e9 00 2e 3e
       -0.26629493 0.23684834 0.25468123 0.16992535
000100 17 85 2d 3f 90 f7 6e 3e 86 35 1a 3e 43 32 ec 3d
       0.67781204 0.23336625 0.1505948 0.11533024
000110 a9 73 8b 3e 10 d8 a6 be 66 db 36 3e 19 4b 80 3d
       0.2723668 -0.32586718 0.17857131 0.06264324
000120 7c 2f 53 3e 68 32 86 3e 2d 71 80 be 88 79 06 bd
       0.20623583 0.26210332 -0.25086346 -0.032830745
000130 d4 5d e5 bd 99 55 60 3e 7b 04 5a bd 65 34 00 3e
       -0.11199537 0.21907653 -0.05322693 0.12519987
000140 12 f6 2d 3e 3b d0 03 3e a1 4e 03 3e 2d 41 1f 3e
       0.169884 0.12872402 0.12822963 0.15552206
000150 46 b7 81 3e 1b cd 9a 3e 11 78 b5 be d2 ce a1 3c
       0.2533514 0.30234608 -0.35443166 0.01975194
000160 6a 30 a5 3e cd b3 14 be b9 48 71 3e b2 10 40 3e
       0.322635 -0.14521714 0.23562898 0.18756369
000170 f2 00 04 3f 40 86 9f 3e 4c e9 c7 be c4 df b1 3d
       0.5156394 0.31157112 -0.3904518 0.08685258
000180 74 87 33 be af e0 8b 3e 89 20 ba 3c 24 99 73 bd
       -0.1753214 0.27319857 0.022720592 -0.05947222
000190 87 e2 bb 3d b1 4e 52 be 4a b4 d5 bd fd 72 9b 3e
       0.09174066 -0.20537831 -0.10434778 0.30361167
0001a0 90 0a 8b 3e 89 11 87 3e 6f 05 69 3e 0b 3f 80 be
       0.27156496 0.26380566 0.22755979 -0.25048098
0001b0 a6 49 1a 3f e1 00 9c be a7 a4 85 3e 84 07 4d 3f
       0.6026863 -0.3046942 0.26102182 0.8008959
0001c0 ec e8 9e bd 41 e8 96 3e 6d ec 8f 3e 40 e0 2e 3e
       -0.0775927 0.2947407 0.28110066 0.17077732
0001d0 7b 15 8c 3e ab d8 93 3c 04 c6 26 3e fe cf dd 3d
       0.27360138 0.018047651 0.16286474 0.10830687
0001e0 43 bd 86 bd db 87 8d be 37 e5 6d be c7 ac 95 3d
       -0.065790676 -0.27642712 -0.2323197 0.07308345
0001f0 83 e9 5a be b8 5b 2f 3e 0a 44 fc 3e a3 f9 0f 3e
       -0.2137814 0.17124832 0.4927066 0.14060073
000200 3c 16 00 be 21 ee 4c 3e c4 83 0a bd 16 f0 37 3e
       -0.12508482 0.20012714 -0.033817068 0.1796268
000210 4b e4 00 3e 14 dc b6 be ec 26 50 3e 04 6a 9f bd
       0.12587087 -0.3571478 0.20327348 -0.07783893
000220 f8 ea ac 3e 2a d3 4f 3e 99 f3 7c be 52 56 4d 3d
       0.33773017 0.20295396 -0.247023 0.05013115
000230 3e 22 29 3e 12 55 d3 be 7d 64 ff ba 08 23 5f 3d
       0.16516969 -0.4127584 -0.0019484904 0.054476768
000240 07 f7 32 3e a1 05 20 3f 88 2a ca 3e f0 a3 00 3e
       0.17477046 0.6250859 0.39485574 0.12562537
000250 ff 7e 1c 3e d3 02 b2 3e bd 4e 92 be 64 59 c7 3d
       0.1528282 0.3476778 -0.28575698 0.09733847
000260 04 bc 4c 3e a3 05 f4 be 68 4d c9 3e cb d1 ef 3b
       0.19993597 -0.4766055 0.3931687 0.0073187104
000270 1c 9a d5 3e 36 de c7 3e b7 ad 83 be 32 eb d2 ba
       0.4171914 0.3903672 -0.2571847 -0.0016091822
000280 6b 79 8b be fa a6 2f 3e cb 8b 56 3e 7e e2 ad 3d
       -0.27241072 0.1715354 0.20951764 0.084904656
000290 7e d6 bd 3e 7c 87 02 be 1e 79 a6 be b3 32 4e bb
       0.37077707 -0.12746996 -0.3251428 -0.0031463325
0002a0 12 14 f9 be c4 7b 8c 3e 29 3e c2 3e d4 a1 0b bf
       -0.48648125 0.27438176 0.3793805 -0.54543805
0002b0 ba 2a ce 3e e1 cb e2 bd 5f 3d 81 3e fc 1a 26 3f
       0.40266973 -0.11074043 0.25242135 0.64884925
0002c0 2f 77 8a 3e 47 34 a4 3e a8 5c 36 3e 37 9a ac 3e
       0.27044055 0.32071134 0.17808783 0.33711407
0002d0 db b8 4e 3e 32 ec 51 3e dd b5 77 3e a0 9c 7f 3a
       0.20187704 0.20500258 0.24190469 0.0009750817
0002e0 f6 35 0e bf 74 27 fd be 52 5f 21 be c7 ce 0b 3e
       -0.5555109 -0.49444163 -0.15759018 0.13653098
0002f0 37 89 9f bd c3 5a 39 3e 2c 56 80 be 2e 1c 3c be
       -0.077898435 0.18101029 -0.25065744 -0.18370125
000300 38 78 0b 3f a9 04 4f 3e 9f a4 e1 3d fa 4e 0f 3e
       0.54480314 0.20216621 0.11017727 0.13994971
000310 3a fc 31 3e 60 d9 3e be a5 2c 13 3e 0b 3e 97 3e
       0.17381373 -0.1863761 0.143725 0.29539523
000320 41 10 b9 3e ec 07 9f 3e 32 21 43 be cf ba 07 bf
       0.36145213 0.3106073 -0.19055632 -0.5301942
000330 93 51 e9 3d f7 ce 8d bd 6c 32 40 3e e3 54 08 3e
       0.11392512 -0.06924241 0.18769234 0.13313632
000340 c5 76 be 3d 4f 56 df 3d e8 77 3b be 34 92 78 3e
       0.09299997 0.10905134 -0.1830746 0.24274522
000350 e3 7c 21 3e ed d3 b5 3e 82 a9 93 be 42 e3 d3 bd
       0.15770297 0.3551325 -0.28840262 -0.1034608
000360 58 ac 92 3e 98 01 db be d0 31 e3 3e 40 ca 2b 3e
       0.28647113 -0.42774653 0.4437394 0.16776371
000370 d4 2d 05 3f 95 c6 3f 3e e1 c6 45 be 72 99 5e 3e
       0.52023053 0.18728097 -0.19314148 0.21738222
000380 d2 2d 98 be 76 16 05 3e 0a 1c 05 3d 03 80 7e 3c
       -0.29722458 0.1299685 0.032497443 0.01553345
000390 27 28 82 3c 17 a1 36 bc 82 21 d0 3c 2e 85 de 3e
       0.015888287 -0.011146805 0.025406603 0.43460983
0003a0 d6 3f 1e bf cc 3e 93 3e fe 2c 8f 3e 14 2f fa be
       -0.61816156 0.28758848 0.27964014 -0.48864043
0003b0 e9 74 cb 3e cd 42 2a be 94 73 4b 3e ab 34 25 bd
       0.39737633 -0.16627045 0.19868308 -0.04033343
0003c0 43 fc 37 be 11 85 b5 be f7 6d 13 3f 01 71 71 3e
       -0.17967324 -0.35453084 0.5758967 0.23578264
0003d0 4e 91 1d 3e a0 08 82 bc bd 26 0c 3e 44 b0 51 3e
       0.1538746 -0.015873253 0.13686652 0.20477396
0003e0 64 31 17 bf 80 00 83 be 09 0e 45 be 94 2b b0 bd
       -0.5905974 -0.2558632 -0.19243635 -0.08602062
0003f0 a3 83 af be fa 09 4c 3e c3 2d e9 3e dd d4 31 3e
       -0.34280118 0.19925681 0.45542726 0.17366357

fc3.bias f4 [4]
000000 de 7d 1e 3f a5 93 0d 3f 8e b0 d3 3e 51 65 00 3f
       0.6191081 0.5530341 0.41345638 0.50154597
